lab2/model/model.pth (torch, 332453 bytes, 12 tensors)

features.0.weight f4 [8, 3, 3, 3]
000000 08 1c 33 3d a7 76 9d be 4c ea a1 3e e7 e9 b6 be
       0.043727905 -0.30754587 0.31624067 -0.35725328
000010 79 93 89 be 59 52 07 3f 34 b5 c9 be 87 31 2e bd
       -0.26870325 0.5286003 -0.3939606 -0.0425277
000020 3b 11 c5 3e 44 f2 fa bd 3c 6b be be 28 46 70 3e
       0.38489708 -0.1225324 -0.37191188 0.23464262
000030 27 d5 32 be f8 5c 85 be 6b 8f 06 3f 3c c2 a7 be
       -0.17464124 -0.26047492 0.5256259 -0.32765377
000040 5f ff 0b 3e b4 77 e4 3e af 45 18 3e c9 33 ce be
       0.13671635 0.44622576 0.14870332 -0.40273884
000050 88 8e 88 3e 54 c2 86 be 37 4c af be af ea 0e 3f
       0.26671243 -0.26320136 -0.34237835 0.5582685
000060 a7 b1 72 be 59 6c 59 bd 5f c0 a8 3e 8e 9d 0c bc
       -0.23700581 -0.053081844 0.32959267 -0.008582486
000070 bc 97 25 be 56 c2 f6 be ba e1 3b 3c 84 43 93 be
       -0.16171163 -0.48195142 0.011467392 -0.28762448
000080 a4 34 81 bc 79 37 9a 3d 0d bf ea 3e 1c ee 2f 3f
       -0.015772171 0.07530112 0.45848885 0.687227
000090 19 08 ad 3e 68 ee b7 bd 36 c6 a9 be 0d 22 9e 3d
       0.3379524 -0.08981019 -0.33159035 0.077213384
0000a0 5b 8d aa be 98 f6 9f be a4 25 09 bf a6 61 8e 3e
       -0.3331097 -0.31242824 -0.5357306 0.27808875
0000b0 75 19 ed 3e 85 30 99 3e 6d 3d 60 be 9b a6 08 3d
       0.46308485 0.2991983 -0.21898432 0.033362012
0000c0 14 41 16 3e 4d 00 ac 3d 67 16 1b be 9d db 82 be
       0.14673263 0.08398495 -0.15145265 -0.25558177
0000d0 02 f7 a1 3d 84 41 7a 3e dd a8 cb 3c eb 90 c7 bd
       0.07908441 0.24439055 0.024860794 -0.09744438
0000e0 c1 78 58 be 69 4f 6b be b0 b3 ab be 30 d7 92 be
       -0.21139814 -0.22979511 -0.33535528 -0.286798
0000f0 b5 61 55 be fa dd c1 be 6c 26 2b 3c 7f 91 15 be
       -0.20838054 -0.37864667 0.010446172 -0.14606284
000100 1a 8a 4f bc 86 ee 12 3e ec f2 e2 bc 78 7a 91 3c
       -0.012667203 0.14348802 -0.027703725 0.017758593
000110 ef e7 14 3e fc 32 30 3d 4b bd ae 3d 28 89 4b be
       0.145416 0.043017372 0.085321985 -0.1987654
000120 ea d4 46 3d 9c b1 b0 3c 43 a3 28 3e 4e 6e 98 3e
       0.048542894 0.021569066 0.1646853 0.29771656
000130 cc 6d cb 3e 05 3a 5e 3e e8 04 05 3e 31 6d 9a 3e
       0.39732206 0.2170182 0.12990153 0.3016143
000140 3f 64 65 3e a4 28 64 be 7d 32 0e 3e 8c 07 08 3d
       0.22401522 -0.22281128 0.13886447 0.033210322
000150 60 b3 7f bc 4b 36 0e be 41 b2 43 be 1d 9f 1b bd
       -0.015606731 -0.13887899 -0.19110967 -0.03799354
000160 ca 21 6b bd e9 bc 72 be cc 1f 6c be 5d fe 9f 3d
       -0.05740527 -0.23704876 -0.23059005 0.07812188
000170 46 ee 52 3e 0d bf 78 be 6f c5 27 3e a7 14 d9 bd
       0.20598707 -0.2429163 0.16383909 -0.10599642
000180 7e b7 af be 72 fa 5a be 4c cf d4 bd 5a 14 07 3e
       -0.3431968 -0.213846 -0.10391101 0.13191357
000190 96 d1 c4 3e 5a 28 f2 3e 3e e6 65 3e be 58 83 3e
       0.3844115 0.4729641 0.22451112 0.25653642
0001a0 49 9f d8 3e d1 41 78 be a5 38 be 3c 01 46 e3 3d
       0.42309025 -0.24243857 0.02322037 0.110973366
0001b0 77 41 35 3d a5 7b b4 bc 18 59 86 bc af 4f 72 3e
       0.044251885 -0.022031615 -0.016399905 0.2366321
0001c0 3c aa 33 3d 1c df a9 bc 34 6e ad 3e 2a 43 06 3e
       0.04386352 -0.02073627 0.3387314 0.13111559
0001d0 22 c1 6c 3e 3c 90 95 be 74 35 da bd ad c4 06 be
       0.2312055 -0.29211605 -0.106547266 -0.13160963
0001e0 cf a5 a1 bd 14 52 e9 3d d9 16 93 bd db fe 85 be
       -0.078929536 0.11392608 -0.07182092 -0.26171002
0001f0 bb 83 01 bc 5c 9b c2 bd 49 62 df bd a2 28 d9 3d
       -0.007904942 -0.09502289 -0.10907418 0.10603453
000200 14 ab 37 3e 1c 5f 30 3e 16 95 a9 3e 6c 6e aa 3e
       0.17936355 0.17223781 0.33121556 0.3328737
000210 bc 7f 1e be 80 0e d3 bd 18 60 22 3e 8d 31 73 be
       -0.15478414 -0.103055 0.1585697 -0.23749371
000220 52 7b 8c 3e 96 3b 3e bd ff e0 51 3e 74 82 4f bb
       0.27437836 -0.046443544 0.20495985 -0.003166345
000230 23 7a 6f be 6e d0 15 be 7e 80 fe bc e4 f6 8b 3e
       -0.23386435 -0.14630291 -0.03106713 0.273368
000240 4a 61 ca 3e 40 22 11 3f c5 3a b1 3e bb a4 d5 3e
       0.3952735 0.56692886 0.3461515 0.41727242
000250 0e 1c 37 be 06 a9 de be 9b d6 9c be bb e5 ac be
       -0.17881796 -0.4348833 -0.3063248 -0.3376902
000260 16 7c 3b 3e 94 7d 36 be fd 98 d9 3e 8f 60 07 3e
       0.18309054 -0.17821342 0.42499533 0.13220428
000270 18 1f fe 3d a1 2e 7e be c5 5e aa be a4 40 86 bd
       0.124082744 -0.24822475 -0.33275428 -0.06555298
000280 cc f8 7a be ab 30 87 3d 85 e1 12 3d a3 36 a4 bc
       -0.24508971 0.066010796 0.035859603 -0.020045584
000290 7c 37 1e 3f 56 b2 c4 bd 50 79 a5 be 0f 71 b6 bd
       0.6180341 -0.096043274 -0.32319117 -0.08908283
0002a0 7b e7 33 be bc d0 21 be f4 6b f2 bd 25 bf 0b be
       -0.17568772 -0.15802282 -0.11836997 -0.13647135
0002b0 e4 35 02 bf 91 12 46 be eb 0e c0 bd ed ab 55 be
       -0.5086348 -0.1934302 -0.093778454 -0.20866366
0002c0 50 6b ce be 7a 80 4e 3e 42 1f 23 3e 06 ad 3e be
       -0.40316248 0.20166197 0.15929893 -0.1862069
0002d0 dd 17 92 3d 76 e2 82 be 0d 91 93 bd cc 3f ae 3e
       0.07133458 -0.255634 -0.072054006 0.34033048
0002e0 e3 d5 13 bd bc 7c 65 be 7d 75 d9 3e af 3b a8 3e
       -0.03609265 -0.22410864 0.4247245 0.32858035
0002f0 33 49 f1 bd 33 41 36 3e 3e 24 ae 3e e4 5e 9a 3d
       -0.1178154 0.17798309 0.34012026 0.0753763
000300 08 d2 be 3d 17 5c 99 3e 90 6d ae 3b e3 ee 8b 3c
       0.09317404 0.2995307 0.0053231195 0.017081684
000310 fc a6 86 3e d8 26 15 be 99 28 ec bd fb f9 42 be
       0.26299274 -0.14565599 -0.11531181 -0.19040672
000320 5c 37 ff be a4 58 ee 3d a0 6d 3f 3c d5 1d fc be
       -0.49846923 0.116380006 0.0116838515 -0.4924151
000330 7e fa 2f 3e 3c a8 cd bd 09 6c ad be 69 92 66 3e
       0.17185399 -0.10041854 -0.33871487 0.22516789
000340 4e 30 78 ba 61 bf dd 3a b4 b4 fd 3d 2c 92 ec 3c
       -0.0009467647 0.0016917997 0.12387982 0.028878294
000350 06 90 89 be 1c 6d 6e 3e e6 cf 95 3e 9e 50 58 be
       -0.26867694 0.2328381 0.29260176 -0.21124503

features.0.bias f4 [8]
000000 0b 70 22 bd 4a af 4a bd ea 92 5e 3e 5c af 0d be
       -0.039657634 -0.049483575 0.21735731 -0.13836426
000010 54 01 0b 3e fd 84 97 bd 79 a3 81 be 77 48 9c 3c
       0.13574725 -0.073984124 -0.25320032 0.019077523

features.3.weight f4 [16, 8, 3, 3]
000000 90 68 45 bf 48 01 2f bf 9c bd 7d be cf ca 3a be
       -0.77112675 -0.6836133 -0.24779361 -0.18241428
000010 da 9f 99 be 40 b6 7f be b5 fd 68 3e e5 5d 63 3d
       -0.3000477 -0.24971867 0.22753032 0.055509467
000020 2a 18 04 3e fd c3 54 3e ce 46 0c be dd e5 4d 3d
       0.12899843 0.20777889 -0.13698885 0.050268043
000030 f3 18 c9 3e 20 2e 1a 3e 05 7d a4 3d 56 7e d3 3e
       0.39276847 0.15056658 0.08031658 0.41307324
000040 bb b8 0a 3e 98 f1 65 3e 7e a5 3a bd 8e 9a 87 be
       0.13547032 0.22455442 -0.045567982 -0.26485103
000050 13 a1 8a be d3 77 10 3d 24 e5 9e 3d 27 8d eb bd
       -0.27076015 0.035270523 0.07758549 -0.11501532
000060 9a 3e 91 3e d2 7a 64 3e 45 e2 93 3e b9 a7 e1 bc
       0.28368074 0.22312477 0.28883567 -0.027545797
000070 cc 59 61 be ee 77 8c bd c1 f2 57 3e ef c9 ca 3d
       -0.22006911 -0.06858812 0.21088697 0.09901797
000080 1c 63 8c 3d 16 d9 cf bc b6 bf 4a 3d d7 3a 80 3e
       0.06854841 -0.02537207 0.049499236 0.2504489
000090 9d 0e f5 bc 42 54 8a be b8 0b 97 be b7 37 10 3e
       -0.029914195 -0.2701741 -0.29501128 0.14083754
0000a0 59 74 3e 3e 64 0d 48 3e 99 64 97 3e be 37 94 3e
       0.1859907 0.19536358 0.29568937 0.28948778
0000b0 8a c4 a5 3e e5 f2 11 bd da 79 73 be 89 c5 d3 bd
       0.3237651 -0.035632033 -0.23776951 -0.10340411
0000c0 c8 a3 14 be a4 a2 c3 bd 85 64 f2 ba 50 e7 91 be
       -0.14515603 -0.095525056 -0.0018493092 -0.2849679
0000d0 53 3f 35 be 72 cc ec 3d 63 28 7e 3e e3 1e 4e 3e
       -0.17699938 0.11562432 0.24820094 0.2012897
0000e0 06 31 07 3d b5 93 82 3d d2 f9 60 3d 83 67 7c bc
       0.033005737 0.06375829 0.054925747 -0.0154055385
0000f0 f3 3e 5d be a2 1d 2d be fa ae 75 bd 44 ef de 3d
       -0.21606044 -0.16905835 -0.059981324 0.1088548
000100 35 ff 83 be 49 13 1a bf 88 d5 d5 bd a3 97 04 bd
       -0.25780645 -0.60185677 -0.104411185 -0.032371175
000110 a1 a5 a1 bd 91 7f 36 be f3 33 3f be 70 4e 0e 3e
       -0.07892919 -0.178221 -0.18672161 0.13897109
000120 0c b4 b4 bd c5 38 af bc 80 e6 33 3d 17 7f 7d 3c
       -0.08823404 -0.021389375 0.043920994 0.015472195
000130 90 87 19 bd c7 3e f5 bd 6a 19 dd 3c 34 21 ba 3d
       -0.037482798 -0.119748645 0.026989657 0.09088364
000140 b2 4f 97 bc e8 34 44 bd a0 a7 7f 3d 97 28 d7 bd
       -0.018470619 -0.047902018 0.06241572 -0.10505789
000150 73 22 0b 3d 75 74 7c bc 35 e1 46 3c 4d cc 63 3d
       0.0339684 -0.015408625 0.0121386545 0.05561476
000160 0b 12 27 3b d1 ab fd bd 13 2a fa 3b 01 59 50 3d
       0.0025492932 -0.12386287 0.00763441 0.05086613
000170 16 54 dd 3c 20 3a 0a be 1b fb 5f 3c 7c d4 9d bd
       0.027017634 -0.13498735 0.013670708 -0.07706544
000180 48 7e 0e bc b7 fc 59 bd cb 5d 59 bd 16 ec 89 3d
       -0.0086971 -0.053219523 -0.053067964 0.06734483
000190 b8 34 96 bc 0d 42 9a 3d 27 3e 73 bd 4e 09 4f bd
       -0.018335685 0.075321294 -0.059385445 -0.050545983
0001a0 0b be a3 bd c8 f1 ae bd 65 0f 7f 3d ff ce 23 bc
       -0.07995232 -0.0854221 0.06227054 -0.009998082
0001b0 52 40 d1 bd 11 78 05 bd dc 7c ca bd 24 9e 33 3a
       -0.10217346 -0.032585207 -0.09887096 0.0006851873
0001c0 e2 25 e2 bd a5 c8 ff bd 4e 16 a3 bc 5f 27 0c be
       -0.11042382 -0.12489442 -0.019908097 -0.13686894
0001d0 9e 3c b7 bd 98 b3 07 be 6a 9e e1 bd 1f c7 d2 bd
       -0.08947109 -0.13252103 -0.11016543 -0.102918856
0001e0 47 15 3a bc bb 12 49 3d 30 87 8a bc c3 25 d7 bd
       -0.011357612 0.04909013 -0.016910166 -0.10505249
0001f0 5b 05 89 bd d8 32 87 bd 7f 7f f7 bd 95 03 1d be
       -0.066904746 -0.066014946 -0.12084865 -0.15333398
000200 65 e1 ab bc a8 29 9b bd 23 9d 89 bd 35 27 c8 3d
       -0.0209815 -0.07576305 -0.067194246 0.09773103
000210 16 ae ee bd e3 99 01 be 29 89 ae bd 26 20 33 3c
       -0.11654298 -0.1265636 -0.08522255 0.010932958
000220 61 bb f9 bd 8a b6 6f bd d1 38 ef bd 0d ae e2 bd
       -0.12193943 -0.058523692 -0.11680759 -0.11068354
000230 d4 d6 e6 bd 2f d5 f9 bc 91 3f e9 bc 29 20 d1 bd
       -0.11271444 -0.030497162 -0.028472694 -0.10211212
000240 0a b4 4c bd 0c 44 06 be bd 4d a2 be 49 55 4e be
       -0.049976386 -0.13111895 -0.31699935 -0.20149721
000250 47 37 5a be e2 f2 23 be 06 66 94 3d 96 4f 5d 3e
       -0.21310149 -0.16010621 0.07246022 0.21612391
000260 ea 85 6c 3e a1 cf df 3e fc 4a d0 3e 21 0b b8 3d
       0.23097959 0.43713096 0.4068221 0.08986498
000270 21 e7 0d be 24 18 cc 3c 0c eb 6e 3e 8d 8e 54 3e
       -0.138577 0.024913855 0.23331851 0.20757504
000280 1d cf 0b 3d 4a 46 0e 3c ae 99 42 3e 2c c3 5f 3e
       0.034133065 0.00868375 0.19003937 0.21851796
000290 1b 9e a6 3e 9a 6b 11 be c2 46 8b bd 08 bc a6 3d
       0.325425 -0.14201203 -0.06800605 0.08141333
0002a0 1d 85 b5 be 80 65 12 be b1 c1 dd bd 77 09 e6 3d
       -0.3545312 -0.14296532 -0.10827959 0.11232274
0002b0 6c 2c 1d 3e 19 a1 0a 3e 19 bc 0e 3e b4 fc d8 3d
       0.15348977 0.13538016 0.13938941 0.10595074
0002c0 f0 85 60 bd fd 7e 0e be c6 41 a6 be 57 0e 16 3e
       -0.054815233 -0.1391563 -0.32472056 0.14653908
0002d0 b2 72 f4 3d 37 0a a5 3e 02 81 89 3e 8c cd 46 be
       0.11935939 0.32234356 0.26856238 -0.19414347
0002e0 d5 24 88 3e c9 89 21 3d 1a 71 95 be e2 ca a7 be
       0.265906 0.039438043 -0.29187852 -0.32771975
0002f0 ce 33 ab bd 16 28 cf 3d 97 54 a0 3d 35 28 52 bd
       -0.0835949 0.10115068 0.07828634 -0.051307876
000300 62 a9 0d 3e 95 f6 43 3d d0 2d 9f bd db fc d7 3d
       0.13834146 0.04784258 -0.0777241 0.10546275
000310 5d e0 d1 3b cb f1 6c 3e 07 eb ad 3d 24 09 b2 bd
       0.00640492 0.23139112 0.084920935 -0.0869315
000320 1d 72 c6 be 94 df 05 be 97 d0 22 3c 5d dc 4b be
       -0.38758937 -0.1307357 0.009937427 -0.1990828
000330 fd 5f c6 3e 41 bb d9 3e 21 3b c1 3e b7 f2 ec 3d
       0.38745108 0.42525676 0.37740424 0.11569732
000340 f8 e7 4b 3e 04 27 be 3d fc eb 93 3d 4f 3d 79 3e
       0.19912708 0.092847854 0.07222745 0.24339794
000350 11 9a a7 3d 1d 20 98 3d 71 d4 48 be 14 9a 3e be
       0.08183683 0.07428 -0.1961229 -0.18613464
000360 12 27 bd 3e 3e ec 49 3e 65 64 8f bd c8 e5 46 be
       0.3694387 0.19719025 -0.070015706 -0.19423592
000370 a1 64 0a 3e da 99 49 3e a1 76 5c be ca 46 9c be
       0.1351495 0.19687596 -0.21529628 -0.30522758
000380 2c de 97 be 58 2a 28 be ae e8 02 3d 9d a4 9a 3e
       -0.2966169 -0.16422403 0.031960182 0.30203715
000390 60 a4 0c 3e a2 79 dc bd 96 04 93 3e 88 4c 13 3f
       0.13734579 -0.10765387 0.28714436 0.5753865
0003a0 d8 3f e1 3e 02 60 a9 3c a3 0d 8d bd 96 9f b7 3d
       0.4399402 0.020675663 -0.068873666 0.089659855
0003b0 83 e1 40 3d 44 df ef 3c 6f e4 75 be 12 6c 31 3b
       0.047090065 0.029281266 -0.24012922 0.0027072472
0003c0 57 14 cc 3d 48 86 2a 3e b9 3f db bd 3a e7 79 3e
       0.09964817 0.16652787 -0.107055135 0.24404612
0003d0 59 bf 30 3e a5 25 8b 3d 0b cd ae be 6d b3 17 3e
       0.17260493 0.067942895 -0.3414081 0.14814539
0003e0 38 3c 71 3e 8f 70 8b 3d fa 5c eb be 9b 61 40 bd
       0.23558128 0.06808578 -0.45969373 -0.046968084
0003f0 08 40 25 3c b4 a9 ed 3d 69 16 11 3e 8f 28 a7 bd
       0.010086067 0.11604634 0.14168705 -0.08162033

features.3.bias f4 [16]
000000 e4 11 a8 3e b8 9e 2c be f8 97 fe be 80 7d 63 be
       0.3282615 -0.16857421 -0.49725318 -0.22215843
000010 93 bd f8 3e b6 1c 03 3e 3c f2 4b bd c7 39 18 bd
       0.48582134 0.12803921 -0.04979156 -0.037164476
000020 72 0e 27 3e 94 d9 da bd dd 12 e8 3e 04 ed b5 3e
       0.16314104 -0.10686031 0.45326892 0.3553239
000030 52 69 d6 3c 35 97 0c 3e 73 6b 60 be f8 b4 2e be
       0.026173268 0.13729556 -0.21915989 -0.17061222

features.6.weight f4 [32, 16, 3, 3]
000000 7a c2 cd bd e8 5d df bd b4 e1 50 be 1a ad 75 bc
       -0.10046859 -0.10906583 -0.20398599 -0.014994884
000010 34 53 77 3d f1 0d fd 3c 8e 6b f4 3d a6 dd 55 be
       0.060382083 0.030890437 0.11934577 -0.20885333
000020 6c e1 91 bc 63 29 3f bd 84 c6 79 3d f8 30 98 3d
       -0.017807685 -0.04667033 0.060980335 0.07431215
000030 b7 78 9a 3d 8b 82 b2 bc 5f e9 a5 3c 77 81 a0 bd
       0.07542556 -0.021790763 0.020252882 -0.078371935
000040 30 93 ad 3c 5c 22 81 bd a2 b5 c7 3e ed b7 54 be
       0.021188349 -0.06305382 0.39005762 -0.20773287
000050 76 56 ca 3c eb dd ce 3e 4f 7b 0c 3e a0 d8 1f 3e
       0.02469943 0.40403685 0.13718913 0.1560998
000060 ee 15 4d ba ed 7f d3 3e 2d af 67 3e b7 11 d1 3d
       -0.0007823397 0.41308537 0.22625418 0.10208457
000070 13 6a 69 be 8f 6f ac be 85 68 ed 3e 46 00 6c bd
       -0.2279437 -0.33678862 0.46368805 -0.05761745
000080 d8 c4 0f 3e 85 1a c0 3e d6 0b 11 3f 6a 2e 4a 3e
       0.14039934 0.37520233 0.56658685 0.19744268
000090 c4 cd 1d be d1 a1 3e 3d d0 72 f4 3d 98 1d d0 be
       -0.15410525 0.04654104 0.11935961 -0.40647578
0000a0 3c f3 43 3c 2b 19 bf 3d a2 6c e2 3d 8f ba f7 bd
       0.011959847 0.09330972 0.11055876 -0.1209613
0000b0 70 00 41 3e d2 26 42 bf 9a b5 be bd 57 46 44 bd
       0.18847823 -0.75840485 -0.093119815 -0.047918644
0000c0 b2 81 a9 be 28 99 eb 3c f5 b7 86 3d 5b 8e ad 3e
       -0.33106762 0.028759554 0.06578056 0.3389767
0000d0 6e 4d 52 3e 05 00 dd 3d 73 a1 1e 3c b8 1d 8f bc
       0.2053735 0.10791019 0.009682047 -0.017470226
0000e0 ee f1 00 3a 14 ad 76 3d e2 72 7b 3e 61 c7 d9 bd
       0.0004918863 0.060223654 0.24555543 -0.10633732
0000f0 62 6f a0 3c 1a da 80 be 83 38 9d bd 0b 58 10 be
       0.019584361 -0.25166398 -0.076767944 -0.14096086
000100 c1 a7 11 bc be be 07 bd 17 72 12 3e eb a4 e0 bd
       -0.008890093 -0.03314089 0.14301334 -0.109689556
000110 72 63 8d be b2 3a 84 3e d0 d8 28 be 08 6a 91 bd
       -0.27614933 0.2582603 -0.16488957 -0.07100302
000120 83 da 8c be 7c cc 02 3e fa ff 71 bc b2 dc 5b be
       -0.2751046 0.12773317 -0.014770502 -0.21470907
000130 5b 85 fd be 93 39 56 be 5c 37 05 3e ba e7 65 be
       -0.49515805 -0.209204 0.13009399 -0.22451678
000140 8b 4b 40 be e6 4b a8 3d 6c c7 af be 53 e3 06 3e
       -0.18778817 0.082176015 -0.34331834 0.13172655
000150 26 12 2e be 38 0b 51 be ae 28 62 bd 9b 12 27 be
       -0.1699911 -0.20414436 -0.055214576 -0.16315691
000160 1b 44 0a bd 62 31 8a be 47 46 a1 3c f2 79 4d 3e
       -0.033756357 -0.269908 0.019686831 0.2006605
000170 30 ae 60 be 02 a7 75 be f8 e3 e5 bd ca ac dc bd
       -0.21941447 -0.2398949 -0.11225122 -0.107751444
000180 80 34 51 3c 09 e7 13 3d 16 6e 3d 3c 15 fe d6 bc
       0.012768865 0.036109004 0.011561891 -0.026244203
000190 5e b5 4b be 2a 31 0b 3e 2b 01 4c be 42 04 f9 3a
       -0.19893405 0.13592973 -0.1992232 0.0018998461
0001a0 73 c1 9c bd 70 0e 0b be c8 2b 5b be 83 33 6e bd
       -0.07654085 -0.13579726 -0.2140342 -0.058154594
0001b0 35 a5 70 bd 3e f8 86 bc 3f c8 5e bd 03 09 ef 3c
       -0.058751304 -0.016475793 -0.05439019 0.029179102
0001c0 0a 15 bf ba d0 a2 b8 3d 3c 81 b9 3d 3f 70 b4 bd
       -0.0014578414 0.09015429 0.090578526 -0.08810472
0001d0 9d 29 00 be 8f 44 b3 be e0 fa b2 bc e9 6f 08 3e
       -0.12515874 -0.35013244 -0.021848142 0.1332394
0001e0 01 fc 9b be ed a0 90 3d b5 ca 6f 3e 86 b1 5e 3d
       -0.304657 0.07061944 0.2341717 0.05436852
0001f0 d5 d3 f6 bd 93 18 df 3c 79 4b ec bd 65 93 88 bd
       -0.120521225 0.027233398 -0.11537833 -0.06668738
000200 f0 04 2d 3d 22 b7 d2 be 54 33 3c be ef 0c 4e bd
       0.042241037 -0.41155344 -0.18378955 -0.050305303
000210 c7 89 33 3d a7 c1 f3 be 26 53 78 3d 78 d4 cc bd
       0.043832567 -0.47608683 0.06062617 -0.10001463
000220 8e 01 e8 bd 09 43 7e 3e e0 94 e6 3d 74 a2 33 3e
       -0.113284215 0.2483026 0.112588644 0.1754244
000230 c5 ff 9a 3e 8e 41 fe 3d 0b d5 da 3e a7 4f 34 3e
       0.30273262 0.12414847 0.42740664 0.1760851
000240 55 f6 ca 3e 35 77 bc 3d bb 1a de 3d bd 9c 4d 3e
       0.3964106 0.092024244 0.10844942 0.20079322
000250 1e 33 f8 3d 0b be 6b bd 79 50 31 3e 9f c6 67 3e
       0.12119125 -0.057554286 0.17315854 0.22634362
000260 7b 68 87 bd 8e 7e c4 bc 9f 78 21 bd ec ab b1 3c
       -0.06611725 -0.023986127 -0.039421674 0.021688424
000270 db 11 d1 3c e0 56 1d 3c d6 ef 50 bd d0 fc 6c bb
       0.02552121 0.009603232 -0.051009975 -0.003616143
000280 19 d9 b2 3d cf 56 ae 3c e0 32 1a 3c 05 5f 70 3e
       0.08732814 0.021281628 0.009411544 0.23473747
000290 54 fb c7 bd 42 12 a9 be 52 c7 5c 3c b7 56 26 3e
       -0.09764734 -0.33021742 0.013475256 0.16244017
0002a0 83 9f 3f be ba 8c 05 bd 0a 73 83 3b 64 8b 9f bd
       -0.18713193 -0.03260491 0.0040115165 -0.077902585
0002b0 47 8c 75 3d bf 32 2f bd 08 1c cc 3c 18 57 8e 3e
       0.059948232 -0.042773005 0.02491571 0.27800822
0002c0 28 f4 32 3e 2b 42 e2 3b 38 29 88 3e c0 5e 4f 3e
       0.1747595 0.0069048605 0.26593947 0.20250988
0002d0 f8 7d c3 bc dc b6 05 bf 52 25 bd be 8c 9e 36 be
       -0.023863778 -0.52232146 -0.36942536 -0.17833918
0002e0 94 48 ad be d5 9a a9 be 2b cf 02 3e 6a d4 92 be
       -0.33844435 -0.3312594 0.12774341 -0.28677684
0002f0 35 cd 00 bf 48 43 52 3c 3e 2e c2 be 9d 19 80 be
       -0.5031312 0.012833424 -0.37925905 -0.2501954
000300 31 04 9b bc 55 31 93 3c 49 75 4f bf e0 c1 ec 3c
       -0.018922897 0.01796786 -0.8103834 0.02890104
000310 26 e4 4f 3e ae a4 fa be ee a8 71 be d8 5d 86 be
       0.20301875 -0.48953766 -0.23599598 -0.26243472
000320 ba 98 e8 bd 0d de 84 3e 60 e7 4a 3c b5 07 e1 bd
       -0.11357255 0.2595066 0.012384266 -0.10987798
000330 d9 d0 81 3e 62 06 7a 3c 97 f1 e3 bd 71 14 da bd
       0.2535465 0.015260311 -0.11130064 -0.1064843
000340 be 59 41 bd 05 57 0b 3e 0a 16 17 bd 86 41 bc bc
       -0.047204725 0.13607414 -0.036886252 -0.022980463
000350 cd f8 24 3c 6b c5 05 be 55 11 19 be 51 06 af 3e
       0.010069084 -0.1306359 -0.14948018 0.34184507
000360 97 fc 45 be dc 66 2e 3c 0b ec 5c be 4f 84 44 bb
       -0.19334637 0.010644641 -0.21574418 -0.0029986089
000370 80 09 65 3c 10 0d a8 bc 5c 23 51 be ec 7d 37 3e
       0.013979316 -0.020514041 -0.20423645 0.17919129
000380 f8 6e 56 3e 53 6a 15 be 91 a8 31 3d 33 ee b0 bd
       0.20940769 -0.1459134 0.043373648 -0.08639183
000390 1a d9 8d 3e 80 89 12 3e 18 cc 98 3d 5b 6e 37 be
       0.27704698 0.14310265 0.07460803 -0.17913191
0003a0 4c 72 32 3d 7e 31 93 3d 6b 5d 56 be d7 bf df be
       0.043566033 0.07187174 -0.20934074 -0.4370105
0003b0 d0 8e c9 be 8a ee 0b bf 94 ee 62 bf e6 9b 61 bf
       -0.3936677 -0.54660857 -0.8864529 -0.8812851
0003c0 26 c9 51 be 5d 32 fb be 7f 96 67 bf 33 9e 60 3e
       -0.20486888 -0.49061862 -0.90464014 0.21935348
0003d0 db 4f 54 3e 2d e9 23 3e 53 45 36 3e 5d a0 26 3e
       0.20733587 0.16006918 0.17799883 0.16272111
0003e0 ce 72 9d 3e 07 13 90 3e 07 0c f3 bc 0c 6b b2 3e
       0.30751652 0.28139517 -0.029668821 0.34847295
0003f0 dc 36 b1 bd 1e cd 71 be 1f fb bb bd 4c e2 0e 3e
       -0.08653042 -0.23613402 -0.09178757 0.13953513

features.6.bias f4 [32]
000000 b8 b6 ea bd f2 a3 76 3e 16 af e3 be 46 4f 6e bd
       -0.11460632 0.24085978 -0.44469517 -0.05818107
000010 de b6 f0 bd 8b 6d 83 bd d6 fb bc 3e d3 21 04 bf
       -0.11753629 -0.06417378 0.36910886 -0.5161411
000020 2b 13 0b bf d7 ec a9 be ea ff 37 3f ef eb 0d 3e
       -0.54326123 -0.33188507 0.7187487 0.13859533
000030 04 42 8a be c5 a1 58 be 4e f3 21 3f fb 25 0f 3e
       -0.2700349 -0.2115546 0.6326188 0.13979332
000040 06 b4 27 bc 63 98 ad 3e 85 d1 86 be ca c8 58 3e
       -0.010235792 0.33905324 -0.26331726 0.21170345
000050 a1 aa 1e bf 79 41 7a 3e ab 4b 68 be 94 a6 b7 bd
       -0.6197911 0.24439038 -0.22685115 -0.08967319
000060 87 a4 b0 be 1b fa 57 be c0 3c 55 be 58 c3 a5 be
       -0.34500524 -0.21091501 -0.20823956 -0.32375598
000070 3a cd 48 bc a7 79 30 3e 5c 0b 07 3e a8 c7 f9 3e
       -0.012255961 0.17233907 0.13187927 0.48785138

features.9.weight f4 [32, 32, 3, 3]
000000 87 5d 7c bc 38 41 c9 bd b7 9a db bb 8e 72 76 bd
       -0.015403158 -0.098268926 -0.006701793 -0.06016784
000010 dd 2a 18 be b3 9d b6 3c 4a d7 3c be c9 cd f3 be
       -0.14860101 0.022291994 -0.18441501 -0.4761794
000020 1f 36 9d bd c5 f3 2a 3e 5b d5 99 3e e6 50 61 3e
       -0.076763384 0.16694553 0.3004559 0.22003517
000030 93 56 0b 3e e1 4d 2f 3e 36 c9 69 bc d7 c4 96 be
       0.13607244 0.17119552 -0.014269164 -0.29447052
000040 7b 05 48 bd be 2d 0b be ea e6 5f be 15 43 f6 3d
       -0.04883335 -0.13591668 -0.2186543 0.12024514
000050 96 95 2e 3e 96 19 0f bf 35 c4 37 3d 05 6a 15 3e
       0.1704925 -0.55898416 0.044864852 0.14591224
000060 82 10 b5 be 67 ff bc bd a7 6c f7 bd cd 45 25 3e
       -0.35364157 -0.09228402 -0.12081271 0.16139908
000070 17 e7 84 bd 22 2e 55 3d 5c 61 c9 3e 02 9e 42 be
       -0.064893894 0.05204595 0.39332092 -0.19005588
000080 06 fb 21 3e 48 74 7a 3e 3f 55 91 be 30 17 2f be
       0.15818414 0.2445842 -0.2838535 -0.17098689
000090 fc 67 82 be 3f f3 d2 bd c8 5b 9c be 12 7d 2c 3e
       -0.2546996 -0.10300302 -0.30538774 0.16844586
0000a0 d2 92 2d be bc 41 a6 be 3b f0 05 3c 53 a7 8e 3d
       -0.16950539 -0.32472026 0.008174951 0.06965508
0000b0 99 90 97 3e f8 05 39 3e 02 36 90 be 0e 76 5b 3c
       0.29602507 0.18068683 -0.28166205 0.013394846
0000c0 85 55 be 3d 04 5f 6c 3d 25 ae 8d be 04 56 16 3f
       0.09293655 0.0577078 -0.27671924 0.58725
0000d0 09 de 35 3e d2 e0 c9 bd b3 27 b6 3d 8d 4f 88 be
       0.17760481 -0.09857334 0.08894291 -0.26623192
0000e0 1e da c9 be b9 16 0f 3e 19 40 65 be e5 92 36 be
       -0.39424223 0.13973512 -0.22387733 -0.17829473
0000f0 6e 68 d8 bc a6 65 cb bd 16 5f 7b 3d 1b 46 b3 be
       -0.026416983 -0.09931497 0.061369978 -0.35014424
000100 d1 51 88 be 8d 85 c5 be e8 ea 82 be 83 28 ed bd
       -0.2662492 -0.38578454 -0.25569844 -0.115799926
000110 6e e4 b8 bd 09 8f 4c be 4c 3c b5 3d 3e d5 c4 3e
       -0.090279445 -0.19976439 0.08849391 0.3844394
000120 1d bb 8c 3d cc a4 95 bb 4d c5 6e 3e 10 c0 13 bf
       0.068716265 -0.0045667645 0.23317452 -0.5771494
000130 cc 04 3d 3e 6f bb 6e 3e 68 07 05 bf 7b cc 23 3e
       0.18458861 0.23313688 -0.51964426 0.15995972
000140 95 5e 98 bd 38 85 a2 be 7a 00 4a be 1c 7c 05 be
       -0.07439915 -0.31742263 -0.19726744 -0.13035625
000150 41 e1 2d 3d e3 72 35 bd b5 c8 90 bd ad b1 80 be
       0.042451147 -0.044299018 -0.07069532 -0.25135556
000160 b1 cc 28 be 8f 78 9f 3e f9 91 24 3d 2e 44 d1 b9
       -0.16484334 0.31146666 0.040178273 -0.00039914384
000170 28 33 fa bd a1 5e 31 3e 53 60 04 be 9b 03 2e bf
       -0.122167885 0.17321254 -0.1292737 -0.6797425
000180 8b 29 a7 3d e5 63 b5 3e 80 8c 5f 3e 61 4b f1 3e
       0.081622206 0.35427776 0.2183094 0.47127822
000190 08 38 d1 bd b3 c7 37 be 88 b0 82 3d d3 fa f3 bd
       -0.10215765 -0.17947273 0.06381327 -0.11913075
0001a0 69 63 16 3c f3 dc b0 bd f1 20 c9 be 49 43 92 be
       0.009178975 -0.08635893 -0.39282945 -0.2856696
0001b0 e4 e0 47 be d5 b8 63 3d 9b 0f 4f 3e cc 62 95 3e
       -0.19519383 0.05559619 0.20220797 0.2917694
0001c0 a1 c3 3e be d9 9f 2b 3e 6e 3d 1f 3d 6d a4 a1 bd
       -0.18629314 0.16760196 0.038876943 -0.0789269
0001d0 3e 9e fa bd cd 5a a0 3d 5f 11 cc 3c bc c5 9c 3d
       -0.122372136 0.07829819 0.024910627 0.07654902
0001e0 8c a0 c4 be 00 a7 1e 3e b0 d5 38 3e d2 38 4a bd
       -0.38403738 0.15493393 0.18050265 -0.049370594
0001f0 7b 59 e9 3e cd 6a 48 3e 3c cb a2 3e 5e 50 4c 3d
       0.4557608 0.19571991 0.3179568 0.04988133
000200 28 48 43 bd bd 85 8b 3e ae 36 01 bc 94 51 45 be
       -0.047676235 0.27250472 -0.007886572 -0.19269401
000210 0a c5 32 3e 50 92 9b 3e 27 23 c4 3e ca ea 42 3e
       0.17457977 0.30385065 0.3830807 0.19034877
000220 ca c3 0a 3e 11 ff 67 3e 4c d5 36 3e 43 4b 21 3d
       0.1355125 0.22655894 0.17854804 0.039378416
000230 b3 1f 64 be 24 1f 41 3e 68 9b d8 3d 5d e8 52 3e
       -0.22277717 0.18859535 0.105765164 0.20596452
000240 bc 1e 7c bd d4 76 1b be c0 fe 75 bd 06 ba a1 be
       -0.061552748 -0.15182048 -0.0600574 -0.31587237
000250 08 04 16 be 15 33 b3 3d 40 29 80 3d a1 c6 e9 3d
       -0.14649975 0.087499775 0.06257868 0.114148386
000260 e2 d0 cc bd b5 64 d9 3e dc 6d 97 3c 3f 85 5b be
       -0.10000779 0.42459646 0.018485002 -0.21437548
000270 12 a9 39 3e 4a ac a0 3c f3 92 95 3d 8f 8f 0e 3d
       0.18130901 0.019613404 0.07303419 0.034804877
000280 4a 6a 06 be f8 f2 82 3e c9 d8 c4 bc a6 48 5d be
       -0.13126484 0.25575995 -0.024029152 -0.21609744
000290 52 b5 41 bd 54 c3 c9 3c f7 52 85 3e 58 24 c2 3d
       -0.04729206 0.024629273 0.2603986 0.09479588
0002a0 5d 3d 1b 3e ca 2e 81 3e 11 6a d8 3e 92 83 59 3e
       0.15160127 0.2523101 0.42268422 0.21241596
0002b0 69 cb 16 3e a3 d4 8b bb 8f 2f 0b be 03 84 8b bd
       0.14726032 -0.0042672916 -0.13592361 -0.068122886
0002c0 2c 32 e9 3d d2 44 10 3b f3 9c 22 3e 59 7d 93 3e
       0.11386523 0.0022013676 0.15880184 0.2880657
0002d0 1a e6 6f be ed f2 b5 3e c6 6a b8 bc 24 17 16 bd
       -0.2342762 0.355369 -0.022511851 -0.036643162
0002e0 8d c6 03 bb 15 54 67 3c 78 2d ae be c0 62 a1 bd
       -0.002010736 0.014119168 -0.34019065 -0.07880163
0002f0 5a 4a 38 bd b9 b4 08 3f 8e 96 07 3e da b3 68 be
       -0.044992782 0.5340076 0.13241026 -0.22724858
000300 39 2a 8a bc 07 c2 47 3d e6 d0 c1 be 8e 6f 2d bd
       -0.016865836 0.048769023 -0.3785469 -0.042342715
000310 03 03 69 be c8 cd 84 bd ea a7 25 3d 7a a7 a5 3d
       -0.22755055 -0.06484562 0.04044334 0.08088584
000320 33 dc 73 3d 41 ce db bd a3 82 a7 3e 07 d8 1c 3e
       0.05953617 -0.10732699 0.32716855 0.15316783
000330 bd 32 3d bf 55 18 88 3c 7f f5 6f 3d 01 bc 78 3e
       -0.73905545 0.016613165 0.058583733 0.24290468
000340 e2 1d 0f be 73 65 07 3d 99 b6 6f bd 0b f7 f2 3c
       -0.13976243 0.033055734 -0.058523748 0.029658815
000350 95 ae b7 3d 6d 27 92 bd 55 7c 05 be d2 cd 3d be
       0.08968846 -0.07136426 -0.1303571 -0.18535545
000360 bc 27 38 be 10 0e 1a 3d eb f9 c9 bd de 27 64 be
       -0.17983907 0.037611067 -0.09862121 -0.22280833
000370 4a 11 37 be 57 6b 90 3c cf 7c e8 3c e2 13 4e 3e
       -0.17877689 0.017629309 0.028379826 0.20124772
000380 25 49 9a 3e e3 e8 0c be 72 51 97 be 24 26 d4 bc
       0.3013393 -0.13760714 -0.29554325 -0.025897093
000390 81 c5 e5 be 3b 41 dc bd f7 0c bd 3d f3 ee f3 be
       -0.44877246 -0.10754629 0.092309885 -0.4764324
0003a0 7c e6 80 3e 5e 4d 85 ba 2b 4c 14 be 31 a9 99 ba
       0.25175846 -0.0010170152 -0.14482181 -0.0011723397
0003b0 13 d8 9f be 57 8f c8 bc 14 c7 51 bd 1a cc 03 3e
       -0.3121954 -0.024482412 -0.051215246 0.12870827
0003c0 72 3d d7 bd 7f 1a 21 3e 7a 0d 42 3c a5 f8 93 be
       -0.10509767 0.15732764 0.011844033 -0.28900638
0003d0 17 4b e2 3d e7 77 62 3e 62 75 81 be 9f 0f 48 be
       0.110494785 0.22116052 -0.25284868 -0.19537209
0003e0 84 4f 8b 3c f4 2f 0c 3d 06 a0 ee bd ce ab 3b be
       0.01700569 0.03422542 -0.11651616 -0.18327257
0003f0 39 a7 27 3c 94 e0 a3 be ce 38 ba be df 43 93 be
       0.01023274 -0.32007277 -0.36371464 -0.2876272

features.9.bias f4 [32]
000000 c8 83 bd 3e 33 4c c4 3d bf 90 bf 3e 2e f2 a7 3e
       0.37014604 0.09584846 0.3741512 0.32801956
000010 e3 eb 63 be d9 cf 94 bd eb e8 91 be cc 16 72 3e
       -0.22257952 -0.07266206 -0.28498015 0.23641509
000020 c5 08 8c be 68 02 27 3e af d7 bd bd 8c 7b 8e 3e
       -0.2735044 0.16309512 -0.09269654 0.27828634
000030 9d 56 ae be b9 9c 96 3a c9 c2 00 be f3 c4 62 be
       -0.34050456 0.0011490799 -0.12574305 -0.22145443
000040 94 bc 08 bd 03 8b 0c 3f 2d b2 64 3e 76 00 38 be
       -0.033382967 0.54899615 0.22333594 -0.17968926
000050 d6 51 2e 3f d4 99 a5 be 42 49 db be ba f2 ee 3e
       0.6809362 -0.32343924 -0.4282933 0.4666956
000060 88 4e 59 3d 33 fd e2 3d 22 08 a5 be ef 0a 12 3e
       0.05305341 0.1108345 -0.32232767 0.14261983
000070 c2 fe c6 3e cc df 5e bd 27 a2 86 3d f7 db 40 be
       0.3886624 -0.054412648 0.06573897 -0.1883391

classifier.0.weight f4 [128, 512]
000000 a9 cc 88 bc 51 44 f1 bd 8c 46 db 3e 3c 02 3d be
       -0.016699152 -0.117806084 0.4282726 -0.18457884
000010 6b 0a 2a 3e 38 c3 b4 bd c7 f0 36 bc d0 d6 61 3c
       0.16605537 -0.088262975 -0.011165804 0.013784125
000020 26 b0 b9 3d ea 54 f0 3b 57 c1 82 be 33 f9 02 bd
       0.09066801 0.0073343413 -0.25538132 -0.031975936
000030 71 1f e6 be fa 3d 8b be 79 71 3c 3e 49 c5 d4 3d
       -0.44945863 -0.27195722 0.18402661 0.10389192
000040 9c 8c cd bd 3f 26 1f bd ac 5b ac be b2 c6 63 b9
       -0.10036585 -0.038854834 -0.3366369 -0.00021722427
000050 55 e1 94 3e fa 6b 6a 3e 5e 4a 1a 3e 4e 66 c6 bd
       0.29078165 0.22892752 0.15067431 -0.09687482
000060 32 c1 81 3e 72 3a d3 bc a6 12 c6 3d 04 8d 51 bc
       0.2534271 -0.025784705 0.09671526 -0.012789968
000070 12 6d 3e be ba 85 58 be 95 40 63 bd 80 3e 05 3e
       -0.18596295 -0.21144763 -0.055481512 0.13012123
000080 56 09 53 be 2b b1 63 be 60 99 6c be 34 80 a0 3e
       -0.2060903 -0.22235553 -0.23105383 0.3134781
000090 f6 5a dd be 61 22 7e 3e 97 ee 2e be f1 15 22 bc
       -0.4323346 0.24817802 -0.17083202 -0.009892927
0000a0 a4 81 2d be b2 5c 06 bd ce 4c 5b be d2 27 e9 3e
       -0.16943985 -0.032803245 -0.21416017 0.45538193
0000b0 32 90 5a 3e 62 0b 8c bd d3 77 c1 3e c6 f2 95 3e
       0.21344069 -0.068381086 0.3778673 0.29286784
0000c0 fd ad 8b 3c 0b ba 1f bd 08 14 0f 3e 04 c4 55 be
       0.017050738 -0.038995784 0.13972485 -0.20875555
0000d0 8a 1c 8f be a8 27 98 3d bb 13 31 3e e2 46 16 be
       -0.2795146 0.07429439 0.17292683 -0.14675477
0000e0 b0 89 cb bd 77 b2 3e be 1c 0d 42 be 05 bd 82 be
       -0.09938371 -0.18622766 -0.18950313 -0.25534835
0000f0 9c 74 11 3e d5 5b 22 3e 9c 97 55 3e e5 02 e9 bc
       0.14204639 0.15855344 0.20858616 -0.028443763
000100 13 59 5e bd 61 85 92 be 73 c0 ac bd 5c 7e 42 bd
       -0.054284167 -0.28617385 -0.08435144 -0.047483787
000110 f5 37 74 be 79 cf c3 3e 90 4c 0d 3e d1 cf 88 bd
       -0.23849471 0.38244227 0.13798738 -0.06680263
000120 be 52 8a be 64 ee c3 3e 3a 4a 6a bd f5 65 5a bd
       -0.27016252 0.38267815 -0.057199694 -0.05331989
000130 40 cb 20 3e 09 c8 20 3e 94 87 2f be fd 4d 8a bd
       0.15702534 0.15701307 -0.17141563 -0.06753156
000140 ad 41 b5 be 7b ba 3c 3d 87 27 00 be 23 37 39 bc
       -0.3540167 0.04607628 -0.12515078 -0.0113046495
000150 db 12 24 3e da 7a ea 3e 7e 1f a2 3e 04 34 9c bd
       0.16022818 0.45796853 0.31664652 -0.07627109
000160 d1 12 30 be 92 24 d3 3d dc e7 19 3b 4c 97 15 3c
       -0.17194678 0.103097096 0.0023484146 0.00913031
000170 63 d0 02 bf 07 aa ba be d1 4e 75 be 19 1a 43 3d
       -0.5109922 -0.36457846 -0.23955847 0.04763231
000180 d5 ba 58 3e bc 49 31 bd 44 fd ee bc 8b d1 4f be
       0.21165021 -0.04328321 -0.0291735 -0.20294778
000190 d5 81 87 bd 41 e4 e9 bd 38 5a 5f be a5 85 29 3d
       -0.0661656 -0.11420489 -0.2181176 0.04138722
0001a0 28 37 45 bd c9 89 00 3e b5 23 3c 3e 73 17 0c 3e
       -0.048148304 0.12552561 0.18372996 0.1368082
0001b0 92 79 47 be 75 74 c0 3d 8f 42 67 3e 04 60 36 3e
       -0.19479969 0.093972124 0.22583984 0.17810065
0001c0 62 fc 8b be dc 81 86 3d b6 3f d3 bc dd 5a cc bd
       -0.2734099 0.065677375 -0.025787216 -0.09978268
0001d0 bd 3a 93 be 5a 1d af bd f0 d1 aa be 47 80 a8 be
       -0.2875575 -0.0855052 -0.33363295 -0.32910368
0001e0 66 ba cb bd 62 a4 03 be 97 d6 76 3e 44 fa ed 3d
       -0.09947662 -0.12855676 0.24105297 0.1162
0001f0 1e b4 c3 3d 7f 5a 89 3d 56 f4 72 be 06 d3 df 3c
       0.09555839 0.06706714 -0.2372602 0.027322304
000200 3d 3f ae be c2 d0 51 3d 3e d8 80 be c3 c3 f5 be
       -0.34032622 0.051224478 -0.2516498 -0.48000917
000210 aa 2a dc bd 62 c0 6f 3d d0 e5 50 be 58 37 0c 3c
       -0.10750325 0.05853308 -0.20400167 0.008558117
000220 8c ae aa 3e 88 7b a2 3e 26 83 85 3e 67 cd 12 3e
       0.33336294 0.31734872 0.2607662 0.14336167
000230 75 68 5c 3e 61 bc 79 bc d9 3c 2c bd a4 2c 15 bf
       0.21524222 -0.015242667 -0.042050216 -0.5827124
000240 e1 09 2e 3e 41 d8 b2 3e 2c 67 84 3e 47 2d db 3e
       0.16995956 0.34930614 0.25859964 0.4280798
000250 12 8d e9 3d ba d5 de bd b4 12 05 be f5 24 ae 3b
       0.1140386 -0.10880609 -0.12995416 0.005314464
000260 68 70 6b bd c0 dc 9c be 52 18 cc bd e5 b0 34 3e
       -0.057480246 -0.3063717 -0.09965576 0.17645605
000270 cf ff fd bd 25 e9 70 bd 0f 0b b8 bd 49 11 29 be
       -0.12402307 -0.058816094 -0.08986484 -0.165105
000280 fe 56 a3 3e df 04 d2 bc 32 b8 00 3e 9c ee 3e 3e
       0.31902307 -0.025637088 0.12570265 0.1864571
000290 bb 2c 49 3e e6 21 bf be 1d a2 64 be 32 24 64 be
       0.1964597 -0.3733055 -0.22327466 -0.22279432
0002a0 62 af 80 be 52 a4 8a bb 10 65 99 3d 14 58 45 be
       -0.25133806 -0.0042310143 0.07489979 -0.1927188
0002b0 46 f2 dd 3d 47 35 49 be 6a 56 e3 3d 12 8d e7 be
       0.108372256 -0.1964923 0.111004665 -0.45224816
0002c0 88 67 a3 3e 0e 47 91 bc 52 dd b5 bc a0 1f 1e 3f
       0.31914926 -0.017734077 -0.02220026 0.61767006
0002d0 2e 75 0a bf b2 b7 0e bf 63 63 1a be 2a cf e7 bd
       -0.5408505 -0.55749047 -0.15076976 -0.1131881
0002e0 56 35 8b 3e 3a 99 3b 3e df 50 9d be 1b a5 9f bc
       0.2718913 0.1832017 -0.30725762 -0.019487908
0002f0 0d bd 1b be 4d 5b 77 3e ab 4c a0 3e b8 4f fe bc
       -0.15208836 0.24155922 0.31308493 -0.031043872
000300 20 6b cc bd c6 64 8e 3d 24 6a e8 3c c8 dd 95 3d
       -0.0998137 0.06952815 0.028370924 0.07317692
000310 85 27 a6 3e 24 9d b6 3e cf 0c 20 3e ed e3 34 3e
       0.32452026 0.35666764 0.15629886 0.17665072
000320 6e 79 4d bc 55 af 41 3e 14 36 6a 3e a3 48 0c 3d
       -0.012541158 0.1891454 0.22872192 0.03424896
000330 f8 27 93 be e3 84 f4 be d6 3a c8 3e 24 f9 91 3b
       -0.2874143 -0.47757635 0.39107388 0.0044547487
000340 8d 2f 5d be 75 fd 5b be ff 80 eb be 1f 8d ee bc
       -0.2160017 -0.21483405 -0.45996854 -0.029120026
000350 1d ab e3 bd 08 b6 5e be 72 a0 c2 3c 20 4f 86 be
       -0.11116622 -0.21749127 0.023758147 -0.26232243
000360 ce 84 6b 3e 10 1c a5 bc 02 e9 ca 3d 20 1c ba 3e
       0.2299988 -0.020154983 0.09907724 0.36349583
000370 65 ce 51 bd a4 f7 31 be c6 8a bb bd 8d c2 cc bd
       -0.051222224 -0.17379624 -0.09157328 -0.09998045
000380 5a eb 1c 3d ad ec 86 be fd 77 fb 3e e1 88 d1 3d
       0.038310386 -0.26352444 0.4911498 0.10231186
000390 b6 57 96 be c2 4e d3 be 55 85 8b bd 53 c0 9a be
       -0.29363793 -0.41271025 -0.068125404 -0.30224857
0003a0 86 32 ae be 6f 25 20 be 29 95 08 3e 85 38 a1 3e
       -0.3402292 -0.1563928 0.1333815 0.31488433
0003b0 f1 8e 81 be 45 51 9f be b4 70 ec 3d 02 51 bc 3e
       -0.25304368 -0.3111669 0.11544934 0.36780554
0003c0 e7 a2 cf be f6 b3 19 bf 95 77 d3 be 43 dd 17 bf
       -0.40553972 -0.60040224 -0.4130217 -0.59321994
0003d0 d8 3f 43 bd 9b d5 bb 3e eb 06 5f 3e 45 97 76 3d
       -0.047668308 0.36686406 0.21779983 0.060202856
0003e0 2c 07 a9 3e 9a 82 88 3d c6 15 8b bd f6 70 92 3d
       0.33013284 0.06665535 -0.06791262 0.07150452
0003f0 a4 66 50 be 95 86 92 be 13 bc 81 bd aa fe 22 bd
       -0.20351654 -0.28618303 -0.063347004 -0.039793648

classifier.0.bias f4 [128]
000000 7d e1 da bd ef 5f 7b bd 89 0e a2 bd 71 fa e4 3d
       -0.1068754 -0.061370786 -0.079129286 0.111805804
000010 c2 7c 63 bd 12 bb 2a 3e 3c 26 5b 3b fc 43 ec bd
       -0.0555389 0.16672924 0.0033439538 -0.115364045
000020 c8 f1 79 be 9b 72 be be 1b 43 20 bd b3 54 93 bc
       -0.24408638 -0.37196812 -0.039126497 -0.017984724
000030 af fa 75 bd 01 10 19 3e 45 6b 41 3e bf ad 56 be
       -0.060053524 0.14947511 0.18888576 -0.20964716
000040 21 73 97 bd 1e 4a d0 be fb 59 ab 3c 0e 53 82 3c
       -0.07395006 -0.40681547 0.02091693 0.015908744
000050 4d c9 06 bd 16 14 1b bd b2 1e b4 bd b3 4b f9 bd
       -0.03290682 -0.037860952 -0.08794917 -0.121726416
000060 dd a8 01 3d 93 b0 09 bd 61 b5 0e bd 69 aa 9a bd
       0.03165518 -0.03361566 -0.034840945 -0.075520344
000070 6f d7 53 bd c6 d0 0a 3d f6 5d 9a bd f6 44 8c 3e
       -0.051719125 0.033890508 -0.07537453 0.27396363
000080 09 0a 50 bd 03 28 81 bc d9 3b 9b bc 4e ff 90 bd
       -0.05079082 -0.01576615 -0.018949436 -0.070799455
000090 56 48 70 3e f8 96 0a 3d 3f c7 d0 bc 7c d2 07 bd
       0.23465094 0.03383538 -0.025485633 -0.033159718
0000a0 4f da b2 bb bc f8 b6 3e cb 0d 1e bd 04 62 b9 bd
       -0.0054581533 0.35736644 -0.038587373 -0.09051898
0000b0 52 b0 44 bd 74 6f af 3e e8 8b 9f 3e e6 22 57 be
       -0.048019715 0.3426472 0.31161427 -0.21009406
0000c0 bd 7e 5f 3e fb 00 b0 3e fd 7f 3a 3e 59 44 2c be
       0.2182569 0.34375748 0.18212886 -0.16822948
0000d0 61 64 a2 be 75 9c 8c 3e 1a 66 20 3c dc 0e 31 3e
       -0.31717208 0.27463117 0.009789968 0.17290825
0000e0 60 ec bd be 36 91 59 3d 78 b1 9f 3e fc d9 bc bd
       -0.37094402 0.053117 0.31190085 -0.09221265
0000f0 ea f8 cd 3e 74 a1 7d be 4e 51 52 be a3 01 4e bd
       0.4022897 -0.2476862 -0.20538828 -0.05029453
000100 13 63 9e 3d 63 bb 3a bd e4 fd e8 3c b1 bb 42 bd
       0.07733741 -0.045588862 0.028441377 -0.047542278
000110 e8 73 9e 3d 0a 86 b8 3d 43 9e f9 be 9c b1 41 be
       0.07736951 0.09009941 -0.48753557 -0.18915409
000120 92 2f 91 bc 28 33 17 bd d1 bd 53 be 7f e7 a9 3d
       -0.017722879 -0.03691402 -0.20677878 0.082961075
000130 2f 6a bb 3e 83 07 09 be 63 55 f3 be f5 a6 af be
       0.3660445 -0.13381772 -0.47526082 -0.34307066
000140 be b9 9c bd f2 bc 21 3f 81 d5 32 be 30 0d 4b be
       -0.07652615 0.6317893 -0.17464258 -0.1982925
000150 02 92 d5 3c 4e e3 c5 bc 5a 85 64 be cb 6a be 3e
       0.026070599 -0.024156239 -0.22316495 0.37190852
000160 5a f8 1d be cf b8 0c 3d 9f 21 3b be 46 b4 17 3c
       -0.1542677 0.034355935 -0.18274544 0.009259289
000170 f8 8f 1c bd ff a3 64 bd 7e ed b9 bc 09 f7 c8 3e
       -0.038223237 -0.05582046 -0.022696253 0.39250973
000180 28 82 bc 3e aa 23 83 bd c4 07 97 be 59 b1 da bb
       0.3681805 -0.06403287 -0.29498112 -0.0066739735
000190 31 44 16 bc e7 cf e0 3c 3c 2e 46 be 2b c8 f3 be
       -0.009171532 0.027442886 -0.19353575 -0.47613654
0001a0 09 c3 95 3d 35 79 bc bc 9e 33 79 bd de 5a d5 be
       0.07312591 -0.023007015 -0.06084024 -0.4167089
0001b0 73 e9 22 bd 09 b5 08 3e 8c f7 65 3e 7f c3 73 bd
       -0.039773416 0.1335031 0.22457713 -0.05951261
0001c0 74 e3 fe bb 10 66 86 3e 28 d2 a0 bd 3b 2b 13 3e
       -0.0077785794 0.26249743 -0.07852584 0.1437196
0001d0 6e 41 97 3c 78 ca ee 3e 15 85 7e bd d2 9e 04 bc
       0.018463816 0.46638846 -0.062138636 -0.008094506
0001e0 18 3e 07 bf f7 2e 9d bb df bb da bc 17 98 59 3e
       -0.5282912 -0.0047968584 -0.026700912 0.21249424
0001f0 15 57 04 3e f8 c5 7d bd cc 2e 95 be d2 72 16 bd
       0.12923844 -0.061956376 -0.29137266 -0.036730595

classifier.2.weight f4 [10, 128]
000000 cf 53 3a be 6d f1 df bc 96 43 2d 3e 0e c5 d1 bc
       -0.18196033 -0.0273368 0.16920313 -0.025606658
000010 37 91 87 3d 9f 4a 21 bf 97 8d 8a bd 11 8b c8 be
       0.066194944 -0.6300449 -0.06765287 -0.391686
000020 73 5e 34 3e 0b 52 70 be 07 28 d4 3d c3 62 6b 3c
       0.17614155 -0.23468797 0.10359197 0.014366808
000030 4c 4f 11 bf f0 35 a7 3c de 6c cb 3d 81 93 5c be
       -0.5676162 0.020411462 0.09932874 -0.21540643
000040 ce 94 63 bc e2 a1 02 3e b6 03 ce 3d c8 ec a4 bd
       -0.013890458 0.12757066 0.100593016 -0.08052975
000050 7d 17 80 bc 69 4f 9e 3d 5e 6a 47 be 4d 4e 84 3b
       -0.0156362 0.0772999 -0.1947417 0.0040376545
000060 d6 da 8e bd a9 a2 3b 3d 8c 47 66 3d d6 84 09 3d
       -0.069753334 0.04580942 0.056220576 0.033573948
000070 af 9c 24 3d c4 26 f2 3d 15 68 0b 3d f5 5b 14 3e
       0.040188488 0.118238 0.034034807 0.14488204
000080 b6 ad fe bc 36 2e f2 bd cb a5 ca 3c f9 78 67 3d
       -0.031088691 -0.1182522 0.02473726 0.056511853
000090 87 e9 27 3e 3d d4 9c 3d 9d 54 54 be 97 8e 60 be
       0.16397677 0.07657669 -0.20735402 -0.21929394
0000a0 14 68 5e 3d 13 8f 8b 3e 84 d7 0e 3c 44 d3 21 3e
       0.054298475 0.27257594 0.008718375 0.15803248
0000b0 f6 9a 8c bd 93 ac 51 3e 3c b8 a0 3b fb 85 a4 be
       -0.06865494 0.20475988 0.004904775 -0.3213347
0000c0 e1 fe 20 bf 94 eb 18 3e 90 4e 0d bf 1c 93 c5 bd
       -0.62888914 0.14933616 -0.55198 -0.096471995
0000d0 a3 31 4d be 01 d9 01 3c 48 f6 13 3d 6b 97 f6 bd
       -0.20038466 0.007925273 0.036123544 -0.120405994
0000e0 df bb 36 3e 9d 9b 8c bd 0d c4 dd be b4 1a 52 bc
       0.17845105 -0.068656184 -0.43313637 -0.012823749
0000f0 bc 4a ae bd c1 4a cf 3d 0e 24 00 bf b2 f5 84 bd
       -0.08510348 0.1012168 -0.50055015 -0.06492175
000100 d1 48 c0 3b 02 ca 34 3d 28 79 af be 88 29 d5 3c
       0.0058680554 0.044137962 -0.34272122 0.02602078
000110 50 fe 58 bd b0 f9 22 3e 8d a3 8a 3e a4 3e d1 3c
       -0.052976906 0.1591556 0.27077904 0.025542565
000120 b5 24 91 3c 25 20 87 3c ba 75 56 be 85 02 80 3e
       0.017717699 0.01649482 -0.20943347 0.25001922
000130 2c d1 e2 3d 8b f7 8b 3d 3b 2c 45 3e 9e 50 f7 3d
       0.110750526 0.068343244 0.19255154 0.120759234
000140 ac 0e 7e 3c b4 37 1d 3e eb 21 f4 be 43 a0 d0 bd
       0.015506428 0.1535328 -0.47682127 -0.101868175
000150 94 c0 a7 3d 23 cf 65 bd 2e 5c 19 3e 7c 0d 02 bf
       0.08191028 -0.056105744 0.1497657 -0.50801826
000160 76 cd 81 be 1e fc 91 bd cf ee 1a 3e 03 23 94 be
       -0.25352067 -0.07128166 0.15130161 -0.28932962
000170 79 bd 01 bc 32 7d 4e 3d dc 2b 8a bd ff 54 7e be
       -0.007918709 0.050412364 -0.06746647 -0.24837111
000180 4e f7 ad 3d 34 32 6f 3d 04 d9 4d 3e 4a 88 c6 bd
       0.08494435 0.058397487 0.20102316 -0.09693964
000190 96 b0 f5 bc d7 bd 36 bd e3 19 26 3e f7 6d b9 3e
       -0.02999143 -0.04461464 0.16220812 0.3621671
0001a0 e1 ec 2e bf 94 9f 3f bd 5f d1 77 3d 01 29 b6 3e
       -0.683302 -0.046783045 0.060502406 0.35578158
0001b0 65 ae 8e be b2 9d e8 be 28 b6 3f 3c 0e 70 a7 bb
       -0.27867427 -0.45432812 0.011701144 -0.0051097935
0001c0 21 40 a1 bd 48 66 11 3e a7 83 6d 3d 7f 58 77 3e
       -0.0787356 0.14199173 0.05798688 0.24154852
0001d0 ba 72 f7 bc 22 c4 1a 3e 6b 5e 3c bc 18 a2 90 bd
       -0.030206073 0.15113881 -0.01149712 -0.07062167
0001e0 6c 44 cc bd 45 15 78 3e e7 81 b9 be 3c 4e 48 be
       -0.09973988 0.24226864 -0.3623192 -0.19561094
0001f0 c9 9d 6f 3e 7b b5 a3 bd 07 bb f1 3e 22 69 66 3d
       0.23400034 -0.07993599 0.47213003 0.056252606
000200 58 a7 d5 3e ff fc 4d bd 99 af a5 3d 29 b0 53 bf
       0.41729236 -0.050290104 0.08090133 -0.82690674
000210 e5 d9 6e bd d7 eb 9f 3d 9f a5 75 3c 31 f8 b0 bd
       -0.05831327 0.07808655 0.0149931 -0.08641089
000220 b1 19 a6 3b a3 bd f7 3e fb 8d 37 3e db b4 36 bb
       0.0050689806 0.4838687 0.17925255 -0.0027878794
000230 91 8f 41 3e d6 1d 92 b8 f4 82 a1 be b2 b4 d3 be
       0.18902422 -6.96738e-05 -0.31545222 -0.41348797
000240 2c d4 85 be 6f 20 ed 3d 2d 28 9f be a9 fc 6a be
       -0.26138437 0.11578452 -0.3108534 -0.22947945
000250 41 52 5e 3c 87 2c a2 3d 8e 87 20 3e 81 24 ae 3c
       0.013569416 0.07918649 0.1567671 0.02125764
000260 55 33 0f bd 49 9f 00 bd 99 ea 3b bd b6 ad 29 3d
       -0.034961063 -0.031401906 -0.045878027 0.04142543
000270 10 6a 8b 3b ea 3b b2 bc d5 55 80 bc 0c 72 35 3e
       0.004254587 -0.021757085 -0.015665928 0.17719287
000280 09 cd 8b 3d b8 44 7b bd e9 9a 19 bd c7 53 2c bd
       0.06826217 -0.061344832 -0.03750125 -0.042072084
000290 1b 5f fd 3d 83 4d 13 ba e0 89 3a be aa fc 51 3e
       0.123716556 -0.0005619155 -0.18216658 0.2050654
0002a0 5b 28 62 bd 97 2d 43 be 1d 7d f5 3b 02 f9 ac be
       -0.055214267 -0.1906036 0.0074917213 -0.33783728
0002b0 a6 70 83 bd 56 fa 36 3e 70 d0 24 bf b6 65 0f be
       -0.0641797 0.17868933 -0.6438055 -0.14003643
0002c0 5e e8 d6 bd 6e 4c 71 3d 50 0a 1a 3c fc 34 47 3e
       -0.10493539 0.05891078 0.009401873 0.19453806
0002d0 9e 26 87 3c e2 1f c9 bd 0e 82 ae bc 5b 42 c7 3c
       0.016497906 -0.09820534 -0.02130225 0.024323633
0002e0 46 b9 af 3d 59 2a 9d be cf 9b 0a be f8 b4 63 3c
       0.0858026 -0.3069637 -0.13535999 0.013898127
0002f0 7a 61 f5 be ce 82 8f be f0 c0 99 3e c4 ab 82 bd
       -0.4792593 -0.28029484 0.30030012 -0.06380418
000300 8d f0 35 bf cf 59 c5 3e 8e e7 7e be 32 f0 d2 3c
       -0.71070176 0.3854508 -0.24893019 0.0257493
000310 33 1a eb 3d 91 3a 0f be c1 97 97 bd fa 55 22 be
       0.114796065 -0.13987185 -0.07401992 -0.1585311
000320 8c a3 52 bd 56 e9 b3 bc a0 95 cd 3d 5a 4b 93 be
       -0.0514255 -0.02196185 0.10038304 -0.28768426
000330 84 d2 3b be ab c6 ee 3d 3d 14 61 3e 19 91 11 be
       -0.18342024 0.11658987 0.21980377 -0.14215507
000340 ad 65 39 be 5b 36 a6 be 6b 7f cc 3d 80 a5 9f 3d
       -0.18105192 -0.32463345 0.099852405 0.077952385
000350 0f 0b 2b 3d d1 00 47 bd af fe e6 3d 27 77 c8 be
       0.041758593 -0.048584763 0.11279046 -0.39153406
000360 47 35 49 3e 71 02 2d be 39 cb 90 be 99 b9 d1 be
       0.1964923 -0.16895463 -0.28280047 -0.40961912
000370 98 1c 0b bd 4e 91 69 3e 2a e0 98 3d ed 9e 85 bd
       -0.033962816 0.22809336 0.07464631 -0.06524453
000380 6b 1c 9c be 20 ee cb bc 21 84 89 3e de 9d 80 3d
       -0.3049043 -0.02489382 0.2685862 0.06280111
000390 e8 7b d1 bd be c3 6e 3c e9 14 94 3e 70 4f aa 3e
       -0.10228711 0.014573036 0.28922203 0.3326373
0003a0 fe 71 fb 3d 4f 1a 82 bd 04 09 a3 bd 2a 33 27 3e
       0.12277602 -0.06352674 -0.07960704 0.16328111
0003b0 9e 82 b3 be d5 a3 ef be a9 b2 4d bf 27 40 4e 3b
       -0.3506059 -0.4680468 -0.8035074 0.0031471343
0003c0 91 0d 3c 3d 48 62 67 be 37 9a 25 bd eb 02 46 3d
       0.045911375 -0.22596085 -0.040430274 0.048342627
0003d0 40 fb 82 bd b0 16 b5 be 5c 29 6d bd 52 34 4c bd
       -0.063955784 -0.35368872 -0.05790077 -0.049854584
0003e0 0c 02 a0 3d e7 7e ed bd bc 78 30 3c 60 ce 3a 3e
       0.078128904 -0.1159647 0.010770973 0.18242788
0003f0 0a 63 03 be 0f d9 88 bb 13 0c c7 bd fe 7f a1 3d
       -0.12830749 -0.004176266 -0.097191 0.07885741

classifier.2.bias f4 [10]
000000 63 b7 16 be 18 f9 c6 be 1e 84 fa bd a8 ed 97 3e
       -0.14718394 -0.38861918 -0.122322306 0.29673505
000010 c1 f0 32 3f ff 7d 3d bd 92 ea b2 3c 21 a6 7c be
       0.6989861 -0.046262737 0.021840367 -0.24672748
000020 51 75 55 3e 8a 26 8e be
       0.20845534 -0.27763778
